experiment/policy_BR.pt (torch, 10780 bytes, 5 tensors)

sequential.0.weight f4 [2, 3, 1, 3]
000000 c1 04 8b be ab 61 ff be 04 a1 17 bf c5 11 83 3f
       -0.27152064 -0.49879202 -0.59230065 1.0239798
000010 8f 08 bf 3e 38 ae f4 3e 30 57 2e 3e b3 90 16 3e
       0.37311217 0.47789168 0.17025447 0.14703636
000020 63 56 98 be ae 36 24 40 d8 1e 87 40 ee bf 5d 40
       -0.29753408 2.5658374 4.222515 3.4648395
000030 04 71 44 3e a8 c5 92 3f de a9 f6 3f a1 b9 96 3f
       0.19183737 1.146657 1.9270589 1.17754
000040 c1 c7 f3 3f 56 77 08 40
       1.9045335 2.1322837

sequential.0.bias f4 [2]
000000 18 5a 35 3e da 1c 47 3f
       0.1771015 0.777784

sequential.2.weight f4 [20, 2, 1, 48]
000000 3e 69 93 bd 42 3e 1e be eb d6 1d be b2 32 31 be
       -0.07197808 -0.15453437 -0.15414016 -0.17304495
000010 75 d9 b1 3e f1 31 b5 3e fc 68 0e 3e df 01 83 bb
       0.3473622 0.35389665 0.13907236 -0.003998026
000020 ac e2 18 3d 78 7b 74 3e 88 80 f0 3d 16 ba 3a bd
       0.037325546 0.23875225 0.117432654 -0.04558762
000030 f2 46 86 be 2d 63 2b 3e b7 15 ad be e8 85 84 3e
       -0.26226002 0.16737051 -0.3380563 0.25883412
000040 52 3f 4b bd 6c 7d d9 bc bf c9 72 be 47 6c 43 be
       -0.049620934 -0.026549064 -0.23709773 -0.19084273
000050 c2 fd 7b be 07 10 b8 3d 89 c4 47 3d d7 92 ae 3d
       -0.2460852 0.08987432 0.048771415 0.08524101
000060 3c de ec 3d c2 b2 95 3e 14 0a 3b 3d 19 7a f2 3d
       0.11565825 0.29237944 0.045663908 0.118396945
000070 8a cc 75 3d 16 71 20 bc 1f f7 2d 3a 2e 41 af 3d
       0.060009517 -0.009792587 0.000663625 0.08557354
000080 1c b1 20 be 11 0c 02 be 99 2b 61 be 89 7f 72 be
       -0.15692562 -0.12699915 -0.21989287 -0.23681463
000090 34 8d 8c 3d 7f 18 24 bd 07 5c f3 bd ec 4b d7 be
       0.0686287 -0.040062424 -0.11882787 -0.4205011
0000a0 26 3d 78 be bb 4f ae be 61 7b 82 be b4 57 dc be
       -0.24242076 -0.34045205 -0.25484756 -0.43035662
0000b0 b0 ed 4f be a7 2e b2 3d 94 09 b2 3d 0a f5 fd bd
       -0.20305514 0.087003045 0.08693233 -0.12400253
0000c0 46 b5 5c be 53 9b b4 3c 69 4f 6a 3e 53 6e 4b 3e
       -0.21553525 0.02204672 0.22881855 0.19866304
0000d0 af 35 08 3e 63 9a 94 bd 69 8a 4b bc ef ae 90 bd
       0.13301729 -0.072560094 -0.012423136 -0.07064616
0000e0 7a 15 6c be e5 e0 9a be fa 35 dd be bb d3 72 be
       -0.23055068 -0.30249706 -0.43205243 -0.23713581
0000f0 58 e6 c0 bd 76 f8 20 3c 85 1c 0d 3e c5 29 2d 3e
       -0.094189346 0.009824863 0.1378041 0.16910465
000100 4d bf 06 be 4b 92 2d be 30 77 4f be ab 4f 15 be
       -0.13158913 -0.16950338 -0.2026031 -0.14581172
000110 33 19 33 3e 5c 54 23 3e ce 36 eb 3d eb 91 40 3d
       0.17490081 0.1595015 0.114850625 0.04701416
000120 02 36 0b be 63 2e 9b be f5 68 47 be 70 b5 83 be
       -0.13594821 -0.30308828 -0.19473632 -0.25724363
000130 05 bc ee bd 08 14 c7 bd 16 9d 96 bb 59 4b aa bd
       -0.11656956 -0.097206175 -0.004596363 -0.08315153
000140 b0 f1 0e 3d 52 b9 eb 3b 64 08 f8 3d fa c3 4b 3d
       0.03489846 0.0071937228 0.121109754 0.049747445
000150 14 39 98 bd 9c 0e 90 bd 2b 3f 99 be e4 00 ac bd
       -0.07432762 -0.070340365 -0.29931006 -0.083986074
000160 d2 42 ab 3b 3e f1 37 3e 7e a5 42 3e ac d6 a9 3e
       0.0052264715 0.1796312 0.19008443 0.33171594
000170 cd d9 99 3e 05 f3 88 3e 24 8d 61 3e 0b cd 3b 3d
       0.3004898 0.2674791 0.22026497 0.04584984
000180 d9 ee 13 bf 64 5e 01 bf 12 a6 0d bf 0b c2 35 bf
       -0.5778633 -0.50534654 -0.5533153 -0.7099921
000190 ee 80 7d be cd e8 a4 bd 42 e1 9f be 3e 95 c9 be
       -0.24756214 -0.08052216 -0.31226546 -0.39371675
0001a0 4c 38 f3 be 18 c2 02 be 5e 10 4c be 26 f2 83 3b
       -0.4750389 -0.12769353 -0.19928119 0.004026669
0001b0 19 92 be be 43 22 16 be c3 67 6f be 69 e4 85 bd
       -0.3722084 -0.14661507 -0.23379426 -0.065377064
0001c0 4c 54 da be b8 69 b6 be ea 89 04 bf db 73 3b bf
       -0.42642438 -0.35627532 -0.5177294 -0.73223656
0001d0 fd b7 2e bf b7 8a 1c bf 2f 39 5b bf 5c 11 47 bf
       -0.68249494 -0.6114916 -0.8563413 -0.77760863
0001e0 83 8d 5d bf 5d ae ce be d6 c6 2c bf a2 2f 2e bf
       -0.86544055 -0.40367404 -0.674909 -0.6804143
0001f0 70 73 cd be a8 78 ae bd fb 2b 80 3e 12 2b ee bd
       -0.40127134 -0.08519107 0.25033554 -0.11629309
000200 16 81 21 bf c1 a6 04 bf 05 84 e1 be 95 99 89 bf
       -0.63087595 -0.51816946 -0.44046035 -1.0749995
000210 07 df 74 bf da f4 1c bf 96 29 1a bf 27 93 6d bf
       -0.9565281 -0.61311114 -0.60219705 -0.9280266
000220 20 17 33 bf 47 5e 56 bf 45 ba 39 bf f8 89 4e bf
       -0.6995716 -0.83737606 -0.7254985 -0.80679274
000230 3a aa 2e bf 96 0b 30 bf 01 f7 10 bf f6 08 31 bf
       -0.68228495 -0.6876768 -0.566269 -0.691543
000240 28 c0 84 bd 96 cb 72 3c 17 79 dd 3d 10 94 82 3e
       -0.064819634 0.0148190465 0.10814112 0.25503588
000250 94 7b 05 3e 3b 57 01 3e e6 71 64 bd 52 b5 25 bd
       0.13035423 0.12630932 -0.055772685 -0.040456124
000260 54 6d 02 be 08 2a 40 be f5 eb 5b be d5 24 6b be
       -0.12737018 -0.18766034 -0.21476729 -0.22963269
000270 39 a1 6e bd 10 e1 c7 bd 55 ae 46 be 74 50 2a be
       -0.058259223 -0.09759724 -0.1940244 -0.16632253
000280 c7 1b ee be 1f a8 d3 be 69 5c e3 be 65 98 c5 be
       -0.46505567 -0.41339204 -0.4440644 -0.3859283
000290 32 d5 c1 bd 1c b3 1b be 00 72 19 be ac 5f bd bd
       -0.09464492 -0.15205044 -0.14984894 -0.092467636
0002a0 9d 13 15 be b1 2a 0c be f6 86 04 be 9d f0 07 3e
       -0.14558263 -0.1368816 -0.12942109 0.1327538
0002b0 91 3a bf 3e 9b 68 e0 3e e4 4e 81 3e d6 bd 8b 3e
       0.3734937 0.43829808 0.252555 0.2729327
0002c0 6a 43 28 3e 71 79 41 3e 18 d6 7b bc 0f ea ec 3d
       0.16431966 0.18893982 -0.015370868 0.11568081
0002d0 e8 f2 a5 3d 5e 29 de ba 8d b1 e3 bd f0 e7 eb 3d
       0.08102971 -0.0016949584 -0.111178495 0.11518848
0002e0 32 3d fb 3d d3 d9 84 3e 9e 48 b5 3e f9 8c e5 3e
       0.122675315 0.25947437 0.35406965 0.44834116
0002f0 04 8f e1 3e 4c 78 61 3e e8 1e 97 3e 4e dd c6 3d
       0.44054425 0.22018546 0.29515767 0.09710179
000300 6d 3c a9 3d ea 82 c4 3d 9c 32 88 3b a3 08 6a bd
       0.082634784 0.095952824 0.0041564237 -0.057137143
000310 5d aa 8c 3d c4 ca c5 bc 93 2b a5 3d e2 66 81 bd
       0.06868432 -0.024144538 0.08064952 -0.063184515
000320 b3 31 ed 3c 07 7d 90 3d 53 7c 98 3c f9 a9 0d bc
       0.028954362 0.07055097 0.01861397 -0.008646482
000330 a1 53 4e bc 6c 2f 95 3c 5f 23 4c bc 30 ff 73 bd
       -0.012593181 0.01821109 -0.012459605 -0.059569538
000340 34 d1 2c 3d 7e 0a 82 3d e0 b7 f2 3c 75 da 8a 3d
       0.0421917 0.063496575 0.029628694 0.067799486
000350 33 81 b7 bd f4 d0 2a bd c8 fe e8 bc 54 17 46 3c
       -0.0896019 -0.04170318 -0.028441802 0.012090523
000360 db 7d a6 3d 0b 36 4c 3d 92 a1 82 bd 6c e4 80 bb
       0.08129474 0.049856227 -0.06378473 -0.00393348
000370 83 09 5b 3d f7 23 18 3d 63 2d 28 bd d8 27 c8 3c
       0.053475868 0.037143674 -0.04105891 0.024433061
000380 e2 ad 61 bd 8e 74 18 3d b6 81 96 bd 98 67 b9 bd
       -0.05509747 0.03722053 -0.07348959 -0.09052962
000390 04 25 88 bc 8c 96 a1 bd f9 48 96 3d 3c a3 96 bd
       -0.016619213 -0.07890043 0.07338137 -0.07355353
0003a0 3d 7c af bd 4c 88 53 bd ae 0e 4b bb c0 d3 8e bd
       -0.085686184 -0.051643655 -0.0030984092 -0.06973982
0003b0 98 07 03 bc ed 72 1e bd 59 90 8d 3d 61 9e eb 3c
       -0.007997416 -0.03868382 0.06912298 0.028762044
0003c0 ca 66 28 3c 12 1d cb bd 1b b4 26 bd 89 e6 9f 3d
       0.010278413 -0.09917654 -0.040699106 0.07807643
0003d0 08 5d 7c 3d a8 cf f4 bb fa f3 2c bd ea 6b 20 3c
       0.06161216 -0.0074710436 -0.04222486 0.009791354
0003e0 2a b8 4a bb c8 df 24 bd 58 c5 04 3d ce dd 74 bc
       -0.0030932524 -0.040252477 0.032414764 -0.0149454605
0003f0 73 51 a2 3d 14 f5 a1 3d f0 3a c3 bc 38 b0 1d bd
       0.079256915 0.07908073 -0.023831815 -0.038498133

sequential.2.bias f4 [20]
000000 ab fa 9a 3d fc b3 e4 3e 14 ab 26 3d dd 76 4f bc
       0.07567342 0.44668567 0.040690497 -0.012662617
000010 e0 10 e2 3f 3e d5 45 3f e6 91 6f 3d 97 0d 51 bb
       1.76614 0.77278507 0.05848875 -0.003189897
000020 d3 67 a2 bd c5 2e 8e bd da be 3b bd 5e 8a 4a 3e
       -0.07929959 -0.06942514 -0.045836307 0.19779345
000030 d8 d4 ab 3d bb a4 17 3d c4 f5 84 3d 23 05 61 bd
       0.08390206 0.037022334 0.064921886 -0.05493654
000040 9c 73 fe bc 99 b5 6e 3d bc 40 b7 3e a4 14 fa bc
       -0.031060986 0.058278654 0.35791576 -0.03052742

final_convolution.weight f4 [1, 21, 1, 1]
000000 17 5e 44 bf eb c2 d6 3f 4f 8a 7f 40 1e 16 08 bd
       -0.7670607 1.6778234 3.9928167 -0.033224218
000010 de 9e 6e be 6f 99 83 40 4b a0 d9 3f 42 8f f0 bd
       -0.2330279 4.1124797 1.7002043 -0.11746074
000020 7d 44 24 be be b1 09 be 3e ef d0 3d ac db 38 3e
       -0.16041751 -0.1344671 0.10201882 0.18052548
000030 ad 39 84 3f 67 50 2c be 48 91 c1 bd 70 a5 82 3c
       1.0330101 -0.16827546 -0.09451538 0.015948027
000040 e9 51 1f 3e 3c 8a 7c bd df d5 b3 bd 0f c7 8f 3f
       0.1555859 -0.061655268 -0.08781027 1.1232623
000050 97 7e 16 3e
       0.14696728
